model/keypoint_classifier.tflite (tflite, 111896 bytes, 8 tensors)

sequential_1/dense_7/BiasAdd/ReadVariableOp f4 [28]
000000 91 2a 04 3f 01 e8 82 3e 15 ee 14 3f 2f 46 07 3f
       0.5162745 0.2556763 0.58175784 0.52841467
000010 98 7b 3b 3d 4b d6 4e 3e b1 3f e0 3e 91 a4 49 bf
       0.045772165 0.20198934 0.43798593 -0.78766733
000020 92 d5 26 3d cb 11 c2 3e 44 2e d6 3e 25 44 26 be
       0.04073102 0.379042 0.41832173 -0.16236933
000030 50 03 e6 bd 19 74 37 bf bb 4b 1d bf fa 84 31 3e
       -0.112311006 -0.71661526 -0.6144368 0.17335883
000040 25 3e 77 bd ea 73 89 bf b8 fc 21 be c1 99 45 bf
       -0.060362 -1.0738499 -0.15819061 -0.77187735
000050 6f 33 00 3e a6 40 36 bd be 00 63 3e 6d a1 c0 bd
       0.1251962 -0.044495247 0.22168252 -0.094057895
000060 a7 37 2c 3d ec 4e 3e be af be 3a 3d cb 92 a8 3e
       0.04204526 -0.18584794 0.045592006 0.32924494

sequential_1/dense_6/BiasAdd/ReadVariableOp f4 [64]
000000 56 0a 0a 3f 1d ab 26 3f e2 fd 98 3e 29 4d 93 3e
       0.5392202 0.6510485 0.29881197 0.28769806
000010 ed ba 10 3f a0 8a 5e 3c 70 aa 20 3f 4d d3 92 be
       0.56535226 0.013582855 0.62760067 -0.28676835
000020 45 0e b6 bd 75 2e b8 3e 44 66 c5 3e 70 79 c4 3e
       -0.088894404 0.35972944 0.38554585 0.383739
000030 2e 09 99 3e 2c f6 59 3f c4 fd de 3e 5b 4f 1f 3f
       0.29889816 0.85141253 0.43552983 0.6223046
000040 e2 28 b9 3e 0d 48 12 3f 92 20 08 3f 73 c5 22 3f
       0.36164004 0.5714119 0.531747 0.63582534
000050 cb 83 4b 3f e8 90 45 3f e6 14 d6 3d 2b 81 e2 3e
       0.79497975 0.77174234 0.10453205 0.44239172
000060 4a ad 68 3e bd 1f b8 3e 5a ad 1c 3f 30 ed c1 3e
       0.22722355 0.35961714 0.61202013 0.37876272
000070 78 97 cd 3e 7b 55 4c 3f 7b 4d 9d 3f af 84 59 bd
       0.40154624 0.7981793 1.228927 -0.053105053
000080 b1 9b ea 3e e6 e7 33 3f 49 8b 03 3d ab 6b 3d 3f
       0.45821908 0.70275724 0.032115255 0.73992413
000090 c2 43 1b 3f 71 9a 04 3d 5d c3 50 3e 42 c7 02 3f
       0.60650265 0.03237385 0.20387025 0.51085293
0000a0 5c d6 df 3e 46 7b 17 3f d9 1d 00 3f df 7c e8 3d
       0.4371823 0.59172475 0.50045544 0.11351942
0000b0 99 8e 1d 3f 26 15 24 3f 68 60 21 3f 3d 0b a5 3e
       0.6154571 0.6409477 0.6303773 0.32235137
0000c0 7e c1 fa 3e cc eb 15 3f 55 32 a3 3e 2e bd 67 3e
       0.48975748 0.5856292 0.31874338 0.2263076
0000d0 f6 8d 00 3f cc 8e e6 3e 6d 82 c3 3e 22 b6 ad 3e
       0.50216615 0.4503082 0.38185444 0.3392802
0000e0 8d 4c 3c 3e 85 b7 17 3f 9b bb 37 3f 7d ae 25 ba
       0.18388577 0.59264404 0.7177064 -0.0006320251
0000f0 87 7b 17 3e 28 5a 0f 3f e6 98 46 3e e6 1b 00 3f
       0.14793216 0.5599694 0.19394264 0.5004257

sequential_1/dense_5/BiasAdd/ReadVariableOp f4 [128]
000000 05 a4 43 3e 84 30 d4 3d 1f f9 d5 be af 84 a5 3d
       0.19105537 0.10360816 -0.41791627 0.08081948
000010 15 fb 6e 3f 74 77 86 3f 09 21 b8 bd b1 84 90 be
       0.9335187 1.0505204 -0.08990676 -0.28226236
000020 65 c9 04 bd db 30 86 be 76 cd df 3e 6f 61 03 3f
       -0.032418627 -0.2620915 0.43711442 0.51320547
000030 20 bb cf be ca 58 10 3f 56 09 3b bd 32 59 9e bc
       -0.40572453 0.5638548 -0.0456632 -0.019329641
000040 9f 27 b6 3c 00 8c 89 bd b7 7e fa 3e 33 2c f4 3e
       0.02223569 -0.06716156 0.489248 0.4768997
000050 8e a8 cc be 7f ac 18 be 96 7b 65 3e 9d 6b 43 3e
       -0.39972347 -0.14909552 0.22410426 0.1908402
000060 98 37 5f 3f 4c 98 00 3f 0f fa b9 be 35 70 d9 3e
       0.87194204 0.50232387 -0.36323592 0.4246842
000070 04 c6 70 be 3e e0 ce ba eb 6c 91 be bb ec 54 bf
       -0.23513037 -0.0015783382 -0.2840341 -0.8317372
000080 91 66 91 3e ba cb d7 be 23 7e 51 3f f8 bc 14 3e
       0.28398564 -0.4214762 0.81833094 0.14525211
000090 f0 48 2e bf b4 9f 54 3f 50 2f 26 3f 93 2e 4f 3f
       -0.68080044 0.8305619 0.64915943 0.8093044
0000a0 25 03 66 3f 87 05 05 bf 33 24 7b 3e 7a ed c8 3d
       0.8984855 -0.5196156 0.24525528 0.0981092
0000b0 7f 7d d9 be 9d f6 2a be f8 c3 dc 3e c6 3e 35 3f
       -0.42478558 -0.16695638 0.43118262 0.7079891
0000c0 9d a8 e7 bd 61 e8 7c 3e 66 a0 ac 3e a7 e1 5c 3e
       -0.11311457 0.2469802 0.33716124 0.21570455
0000d0 94 11 f2 3e 6a 4e 13 bf 7f b4 29 3f e8 e1 7f 3e
       0.47279036 -0.57541525 0.6629104 0.2498852
0000e0 2e 76 8d be 5b fe a3 3e b1 59 8f 3f 4f 89 99 3f
       -0.27629226 0.32029995 1.1199247 1.1995028
0000f0 a7 15 46 3f dc c3 2c be b6 a3 59 3f 00 fc 1e 3f
       0.7737679 -0.1687159 0.8501543 0.6210327
000100 90 d7 7f bf 75 a1 9b 3c df 95 26 3f 12 bc 04 3e
       -0.999383 0.018997887 0.65072435 0.12962368
000110 39 33 d8 3e 8f 70 e4 be eb ff fa bd b1 69 b5 3e
       0.4222658 -0.44617125 -0.12255844 0.354322
000120 75 5d 65 3e 04 a9 dc 3e 33 ed f0 3e df fb 22 bc
       0.22398932 0.430977 0.4705597 -0.009947746
000130 94 19 c6 be b5 3f 4b 3e ec a3 ef 3e 96 0d 9a 3d
       -0.3869139 0.19848521 0.4680475 0.075221226
000140 43 d7 13 3f 00 11 a4 3e 86 3d 41 3f 6a 05 f6 3a
       0.5775034 0.3204422 0.754845 0.0018769924
000150 0a 60 8a 3e 68 15 21 3f fe 43 ba 3e ce bc c1 3d
       0.27026397 0.6292329 0.3638 0.0945984
000160 fb e5 1a 3e d2 30 a0 be 73 61 1e bf 7f 5f 0f 3f
       0.15126793 -0.31287247 -0.61867446 0.5600509
000170 51 94 dd be a2 c8 9e 3e 64 d8 1f 3f ba e3 5f be
       -0.4327722 0.31012446 0.6243956 -0.21864215
000180 bc 53 e2 3e af 0a 63 bf af e7 ce 3d be e9 c6 bd
       0.4420451 -0.88688177 0.10102784 -0.097125515
000190 1c 41 89 3e 09 40 20 bd 85 f0 d5 bc 66 8b 4b 3f
       0.26807487 -0.03912357 -0.026115665 0.7950958
0001a0 6a 3a c1 3e d5 22 c8 be f2 e4 07 be 72 1e 0a bf
       0.3773988 -0.39089075 -0.1327093 -0.53952706
0001b0 30 35 a7 3e 60 49 a9 3e 3a 26 c4 3e 3d e1 c6 3e
       0.32657766 0.33063793 0.38310415 0.38843718
0001c0 b5 9e 70 3e 31 0c 12 bf 01 34 36 be 13 01 45 3d
       0.23498042 -0.5704985 -0.17793275 0.048096728
0001d0 82 d9 37 3f f2 36 53 3e e3 78 f1 3e ad e2 c3 bd
       0.71816266 0.20626429 0.47162542 -0.09564719
0001e0 2c 26 10 bf ac dd e3 3e 4f 44 25 bf 1c f7 af be
       -0.56308246 0.4450506 -0.64557356 -0.34368217
0001f0 b8 c8 a1 bc 80 95 c4 3e 26 6d 9e 3e f9 ac ca 3e
       -0.01974903 0.3839531 0.3094265 0.39585093

sequential_1/dense_4/BiasAdd/ReadVariableOp f4 [256]
000000 80 26 0d 3e 8b 3f 3c be d5 df 10 3f f7 c7 9b bd
       0.13784218 -0.18383615 0.5659154 -0.076065
000010 cb 14 8b 3d 72 50 84 bc bd ff 9e bc 49 e3 52 3e
       0.06791075 -0.01615164 -0.019409055 0.20594515
000020 56 e1 07 3e ad c2 4f 3e 81 2e 62 bc b4 35 1f bf
       0.13269553 0.20289107 -0.013805033 -0.6219132
000030 85 ec c0 3e 34 d5 a7 be 11 64 a0 bc f5 81 be be
       0.3768045 -0.3277985 -0.019578965 -0.37208524
000040 57 9f d2 bc 04 2b c0 3e 9e a5 08 3f c0 1e 74 bf
       -0.025710745 0.37532818 0.5337771 -0.9535942
000050 13 65 26 be 90 7b 01 3e 31 03 ef bd d7 b6 b9 be
       -0.16249494 0.12644792 -0.116705306 -0.36272308
000060 b5 42 7d bc 0d 69 db 3d 9b 24 65 3e 9b 9a 97 bf
       -0.015457799 0.10713396 0.22377245 -1.1844057
000070 eb f8 c3 3e e5 9a fb 3e 11 1d ac 3e 56 60 c4 bc
       0.38275847 0.49141613 0.33615926 -0.023971718
000080 c1 78 a4 3b 2f eb bd be 5a 22 bc 3d 11 52 18 3e
       0.005019278 -0.37093493 0.091862395 0.14875056
000090 c9 9e 6e bf de 11 1b bc 18 2c f2 bc 8e 6f 62 3f
       -0.93211037 -0.009464709 -0.029562041 0.8845147
0000a0 95 45 32 3f 0c a3 08 3f e6 70 fa be 67 82 17 3f
       0.69637424 0.5337379 -0.4891426 0.59183353
0000b0 95 69 77 bc cf 46 d7 3e 98 f6 fe 3e d0 d0 32 bc
       -0.015100856 0.4204621 0.4979751 -0.010914043
0000c0 14 55 33 3f 92 eb a9 3e 64 16 90 bc 4a 3c 14 bf
       0.70051694 0.33187538 -0.017588802 -0.57904494
0000d0 c9 8c fb 3d ff c1 37 3d d0 ba c8 be fd 24 6c bc
       0.12282712 0.044862743 -0.39205027 -0.014413116
0000e0 09 ee 77 bc 2e 8f 83 be 2d e7 df 3e d8 43 2b bf
       -0.015132436 -0.25695175 0.4373106 -0.66900396
0000f0 59 9f e7 3c 32 39 f7 bc 29 85 26 be 2a dd 1d bd
       0.028274225 -0.03017864 -0.16261734 -0.038540997
000100 71 d1 6f bf bb 9a ce be aa 87 be be fc a1 55 bf
       -0.9367896 -0.40352425 -0.37212878 -0.83450294
000110 b3 9f e9 3e b1 4a d9 be e5 e4 df 3e 81 21 34 3e
       0.45629653 -0.42439798 0.4372932 0.17590906
000120 9c c2 0c 3f 7d 3f e8 3d 1d b1 22 bf 75 0e 32 3e
       0.5498445 0.113402344 -0.63551503 0.17388327
000130 80 22 28 be 70 16 5c be 8b b7 5b 3c 8b 4e 25 3d
       -0.1641941 -0.21492934 0.013410459 0.040358108
000140 ef 3b 03 3f d7 05 c9 3d 2a a9 3e 3f 51 57 16 3d
       0.51263326 0.09815567 0.74476874 0.036704365
000150 c1 a3 05 bd de cf 5d bc e2 cf ba be 23 f6 1f 3f
       -0.03262687 -0.013538329 -0.36486727 0.6248495
000160 50 a9 2d 3e ce db 31 3e 3e 5e 58 bf 5e 1b 9b bc
       0.16959119 0.17369005 -0.845188 -0.018933948
000170 ec f3 3d bf d8 66 41 bd 8d 7b 20 3f 13 09 5c 3e
       -0.7420032 -0.04721722 0.62688524 0.21487837
000180 39 92 5e 3f 71 46 9a 3e c7 de 89 3e 7c bf 6b 3e
       0.8694187 0.30131868 0.26927778 0.23022264
000190 2d 4a 15 3d 91 26 96 bc 30 22 18 bf b8 f2 31 3e
       0.036447693 -0.018328937 -0.59427166 0.17377746
0001a0 4f 0e 86 3e 48 44 cd bc 1b bf 18 3d 3d 3b c6 3d
       0.26182792 -0.025056973 0.037291627 0.096792676
0001b0 e7 6e 91 be 32 dc 9e bc b4 f9 e9 bc 57 da b7 3e
       -0.28404924 -0.019392107 -0.02856145 0.35908768
0001c0 70 7b 66 bc f6 ef 3e bf 44 de 50 bf 9d ce 6d bd
       -0.014067516 -0.745849 -0.8158915 -0.05805837
0001d0 a7 fb 52 bf ed 77 e5 bb 22 61 78 3d 3e ef 1f be
       -0.8241524 -0.0070028217 0.060639508 -0.15618607
0001e0 74 44 86 3e bf 17 01 3f cd ab 1f 3e c6 d0 1d bd
       0.262241 0.5042686 0.1559288 -0.03852918
0001f0 bf d6 86 be 46 8b 44 bc 1a 8c e5 bc 03 fa d8 3d
       -0.26335713 -0.011996096 -0.028020907 0.10594561
000200 c8 59 de bc 68 fc 58 bf 18 ff f3 3d 12 a8 24 bf
       -0.02714242 -0.8476014 0.1191389 -0.64318955
000210 22 ff 25 bd b8 83 c2 be 10 cf a9 3e 35 88 30 3f
       -0.040526517 -0.37991118 0.3316579 0.68957835
000220 c3 fb 26 bd 8f a1 5d 3c 70 19 12 3e 1e 86 20 3f
       -0.040767442 0.013527288 0.14267516 0.62704647
000230 b9 c7 2b be 9f 0f c6 3e e4 82 bb 3e fa 8e 68 bf
       -0.16775407 0.38683793 0.366233 -0.90843165
000240 38 51 2e 3b 48 7b 91 bf 4f 3a 1d bf bb 9b db 3c
       0.0026598703 -1.1365747 -0.61417097 0.026807657
000250 bd f1 f6 bc 9d 24 49 bd 16 18 f7 3e 46 20 e0 3e
       -0.030144567 -0.049107183 0.48260564 0.43774623
000260 c9 8d 9e 3d 16 41 11 3f d0 0b 9e 3e 0f 27 31 3f
       0.07741887 0.5673994 0.30868387 0.69200224
000270 b2 d5 20 3c 7d ee ba be 0a 79 39 bf 9a fc 7d bf
       0.009816574 -0.36510077 -0.72450316 -0.99213564
000280 49 13 00 bd cc d7 ee bd 47 57 47 bf 4a f8 60 bd
       -0.03126839 -0.11662254 -0.7786755 -0.054924287
000290 07 b7 8b 3d 7d 70 18 3e 6d a2 cd 3e 34 10 37 3f
       0.06822019 0.14886661 0.40162984 0.715091
0002a0 1a 67 bf 3d 07 4b 4b bf f0 9a 78 3d 1b c9 2b bf
       0.09345837 -0.7941136 0.060694635 -0.6710374
0002b0 8b 54 71 bf e7 53 36 3f 8a 92 87 be b4 18 af 3e
       -0.9426963 0.71221775 -0.26478988 0.34198534
0002c0 4a 59 c2 3e f8 e6 79 bc 4d ad 6a 3e 73 60 ca bc
       0.37958747 -0.015252821 0.22917672 -0.024704194
0002d0 13 56 2a bc f7 f2 80 bf 79 ba 09 bd da 55 5e b9
       -0.010396498 -1.0074147 -0.0336251 -0.00021203552
0002e0 3c 05 46 3f 95 07 b1 bd 61 9e f1 3e f7 9b 62 3f
       0.7735174 -0.08644024 0.47191146 0.88519233
0002f0 61 ae e2 3d 61 3a cc 3e 78 21 63 bf 88 0e ed 3e
       0.110684164 0.3988829 -0.88722944 0.4630015
000300 74 94 1a 3f 60 a9 c2 3e 1a 8e fc 3e f9 09 88 be
       0.6038277 0.38019848 0.49327165 -0.2657011
000310 3d 18 c2 3d c7 4e 82 bc 15 7f 98 bc 58 c7 01 bd
       0.09477279 -0.015906705 -0.018615285 -0.03168425
000320 da ee d2 3e e0 88 3c bf 6f 6f 91 3e 1a 72 00 bf
       0.41197854 -0.73646355 0.2840533 -0.50174105
000330 75 d2 11 be e6 06 7e 3e e0 35 b7 be a1 e6 0d be
       -0.14240439 0.24807319 -0.3578329 -0.13857509
000340 85 14 eb be 6b bf 89 3b 74 14 40 3f 17 b7 6b bd
       -0.45914093 0.004203727 0.7503121 -0.057547655
000350 66 53 de bd c8 24 93 bf 8a f0 da bc 89 44 bc be
       -0.10855751 -1.14956 -0.026726026 -0.36771038
000360 b8 9d c7 be 86 29 1e bf 58 ee 00 3e 7a d8 ca 3e
       -0.38987517 -0.6178211 0.12590921 0.39618284
000370 61 70 d9 bc cc 5e 93 3f 28 76 74 3c 5f 64 ba 3d
       -0.026542844 1.1513305 0.014920749 0.091011755
000380 7c 4c 3f bd 47 48 dc 3e bb b0 92 3e 96 e9 0f 3f
       -0.0467038 0.43023893 0.2865046 0.562158
000390 f7 cf 9a be be 73 f6 bd f7 69 c1 3d 6a 9b ec 3d
       -0.3023679 -0.12033795 0.09444039 0.115530804
0003a0 85 2d fd 3d 80 15 5d 3e e3 e6 f0 bb 55 3a 3c bd
       0.12362198 0.21590233 -0.0073517426 -0.045954067
0003b0 4a 13 d3 3c 27 70 dd bc e1 6c ce be aa 4d d8 3d
       0.025766034 -0.027031017 -0.40317443 0.10561688
0003c0 ad b9 fb bc ee 28 db be ab 98 69 bc af e2 96 bc
       -0.030728186 -0.42804664 -0.01425759 -0.018418638
0003d0 e3 a2 d0 be ae 80 82 bc 03 fa 9d 3d 24 45 81 be
       -0.40749273 -0.0159305 0.077137016 -0.25248063
0003e0 92 c2 be bd ef 3e 18 bd 54 a2 70 bb 3e e1 9e be
       -0.09314455 -0.037169393 -0.003671785 -0.3103122
0003f0 24 f4 cb bc cc bf 95 bf c2 92 d1 bc 21 a3 6d be
       -0.024896689 -1.1699157 -0.025582675 -0.2320676

sequential_1/dense_4/MatMul i1 [256, 252] scale=0.029418934 zero_point=0
000000 ff fc fd fd 05 ff 03 ff 03 02 fe 00 03 00 02 ff
       -0.029418934 -0.11767574 -0.088256806 -0.088256806 0.14709467 -0.029418934 0.088256806 -0.029418934 0.088256806 0.05883787 -0.05883787 0.0 0.088256806 0.0 0.05883787 -0.029418934
000010 03 fe 00 01 00 fc f2 fc fb 01 fc 02 fd 00 01 fe
       0.088256806 -0.05883787 0.0 0.029418934 0.0 -0.11767574 -0.4118651 -0.11767574 -0.14709467 0.029418934 -0.11767574 0.05883787 -0.088256806 0.0 0.029418934 -0.05883787
000020 00 fb ff 06 fc 01 01 05 03 05 fe fc f8 f7 fe 00
       0.0 -0.14709467 -0.029418934 0.17651361 -0.11767574 0.029418934 0.029418934 0.14709467 0.088256806 0.14709467 -0.05883787 -0.11767574 -0.23535147 -0.26477042 -0.05883787 0.0
000030 01 02 ff 00 01 01 ff ff 00 04 ff fd fd fe ef f9
       0.029418934 0.05883787 -0.029418934 0.0 0.029418934 0.029418934 -0.029418934 -0.029418934 0.0 0.11767574 -0.029418934 -0.088256806 -0.088256806 -0.05883787 -0.5001219 -0.20593254
000040 f3 00 01 03 03 03 ff 00 03 04 fc 02 03 07 fb fe
       -0.38244614 0.0 0.029418934 0.088256806 0.088256806 0.088256806 -0.029418934 0.0 0.088256806 0.11767574 -0.11767574 0.05883787 0.088256806 0.20593254 -0.14709467 -0.05883787
000050 fe ed ee 06 0b 09 05 0e 08 06 0b 0b 03 06 08 0e
       -0.05883787 -0.5589597 -0.52954084 0.17651361 0.32360828 0.26477042 0.14709467 0.4118651 0.23535147 0.17651361 0.32360828 0.32360828 0.088256806 0.17651361 0.23535147 0.4118651
000060 00 fe ff e4 f8 03 09 08 00 00 0a 0f 01 05 05 fe
       0.0 -0.05883787 -0.029418934 -0.8237302 -0.23535147 0.088256806 0.26477042 0.23535147 0.0 0.0 0.29418933 0.441284 0.029418934 0.14709467 0.14709467 -0.05883787
000070 01 02 ff f9 d6 fb 01 fb e2 fb 08 14 e4 f6 f1 f0
       0.029418934 0.05883787 -0.029418934 -0.20593254 -1.2355952 -0.14709467 0.029418934 -0.14709467 -0.882568 -0.14709467 0.23535147 0.58837867 -0.8237302 -0.29418933 -0.441284 -0.47070295
000080 ef f6 f4 f5 ff 01 04 ff fe 06 04 fe f4 f7 f9 fd
       -0.5001219 -0.29418933 -0.35302722 -0.32360828 -0.029418934 0.029418934 0.11767574 -0.029418934 -0.05883787 0.17651361 0.11767574 -0.05883787 -0.35302722 -0.26477042 -0.20593254 -0.088256806
000090 fc f7 fb f9 ff fb f8 05 fd fc fc f6 f4 ff 03 04
       -0.11767574 -0.26477042 -0.14709467 -0.20593254 -0.029418934 -0.14709467 -0.23535147 0.14709467 -0.088256806 -0.11767574 -0.11767574 -0.29418933 -0.35302722 -0.029418934 0.088256806 0.11767574
0000a0 01 fb 00 ed f9 01 fe fc fe fe ff 02 03 07 00 f8
       0.029418934 -0.14709467 0.0 -0.5589597 -0.20593254 0.029418934 -0.05883787 -0.11767574 -0.05883787 -0.05883787 -0.029418934 0.05883787 0.088256806 0.20593254 0.0 -0.23535147
0000b0 ee fe 01 ff ff ff 01 05 03 09 fd 03 07 f2 fa f4
       -0.52954084 -0.05883787 0.029418934 -0.029418934 -0.029418934 -0.029418934 0.029418934 0.14709467 0.088256806 0.26477042 -0.088256806 0.088256806 0.20593254 -0.4118651 -0.17651361 -0.35302722
0000c0 f7 fd fd fd f8 00 ff fd fb f5 f4 ff 07 07 04 ff
       -0.26477042 -0.088256806 -0.088256806 -0.088256806 -0.23535147 0.0 -0.029418934 -0.088256806 -0.14709467 -0.32360828 -0.35302722 -0.029418934 0.20593254 0.20593254 0.11767574 -0.029418934
0000d0 ff 03 07 fe 01 06 0c 12 04 fe 05 09 05 06 0a 11
       -0.029418934 0.088256806 0.20593254 -0.05883787 0.029418934 0.17651361 0.35302722 0.52954084 0.11767574 -0.05883787 0.14709467 0.26477042 0.14709467 0.17651361 0.29418933 0.5001219
0000e0 09 01 01 f9 fe f7 f8 02 ff 09 0f 05 f1 01 06 0a
       0.26477042 0.029418934 0.029418934 -0.20593254 -0.05883787 -0.26477042 -0.23535147 0.05883787 -0.029418934 0.26477042 0.441284 0.14709467 -0.441284 0.029418934 0.17651361 0.29418933
0000f0 09 06 03 06 0b 07 f5 fc fd ea f0 e6 01 ff 00 fc
       0.26477042 0.17651361 0.088256806 0.17651361 0.32360828 0.20593254 -0.32360828 -0.11767574 -0.088256806 -0.64721656 -0.47070295 -0.7648923 0.029418934 -0.029418934 0.0 -0.11767574

sequential_1/dense_5/MatMul i1 [128, 256] scale=0.01233849 zero_point=0
000000 dd fd de 22 fc f8 ff c2 bb ed f9 ff f7 07 fd 09
       -0.43184716 -0.03701547 -0.41950867 0.41950867 -0.04935396 -0.09870792 -0.01233849 -0.7649864 -0.85135585 -0.23443131 -0.08636943 -0.01233849 -0.11104641 0.08636943 -0.03701547 0.11104641
000010 f6 f1 d2 fc ef 17 f8 08 02 fa cc ff f4 08 f5 fe
       -0.1233849 -0.18507735 -0.56757057 -0.04935396 -0.20975433 0.28378528 -0.09870792 0.09870792 0.02467698 -0.07403094 -0.6416015 -0.01233849 -0.14806189 0.09870792 -0.1357234 -0.02467698
000020 eb f8 02 03 f9 0d 02 25 09 00 08 f2 fa 07 f6 ee
       -0.2591083 -0.09870792 0.02467698 0.03701547 -0.08636943 0.16040038 0.02467698 0.45652413 0.11104641 0.0 0.09870792 -0.17273887 -0.07403094 0.08636943 -0.1233849 -0.22209282
000030 05 02 06 10 fc 07 04 06 00 0f 0c 03 e5 05 d0 03
       0.06169245 0.02467698 0.07403094 0.19741584 -0.04935396 0.08636943 0.04935396 0.07403094 0.0 0.18507735 0.14806189 0.03701547 -0.33313924 0.06169245 -0.59224755 0.03701547
000040 f8 09 06 e0 0a f9 0f 1e 0d 01 fa 0c 14 fd 0e 05
       -0.09870792 0.11104641 0.07403094 -0.3948317 0.1233849 -0.08636943 0.18507735 0.3701547 0.16040038 0.01233849 -0.07403094 0.14806189 0.2467698 -0.03701547 0.17273887 0.06169245
000050 f8 01 f1 04 ff f6 e7 fd 06 ec 04 05 02 1d f3 08
       -0.09870792 0.01233849 -0.18507735 0.04935396 -0.01233849 -0.1233849 -0.30846226 -0.03701547 0.07403094 -0.2467698 0.04935396 0.06169245 0.02467698 0.35781622 -0.16040038 0.09870792
000060 f2 00 f0 07 09 f7 f5 00 d3 08 fc fd f2 07 0a fc
       -0.17273887 0.0 -0.19741584 0.08636943 0.11104641 -0.11104641 -0.1357234 0.0 -0.55523205 0.09870792 -0.04935396 -0.03701547 -0.17273887 0.08636943 0.1233849 -0.04935396
000070 fe 05 ce 00 f5 f4 c9 e2 f3 f7 05 03 0d 02 03 0a
       -0.02467698 0.06169245 -0.6169245 0.0 -0.1357234 -0.14806189 -0.67861694 -0.3701547 -0.16040038 -0.11104641 0.06169245 0.03701547 0.16040038 0.02467698 0.03701547 0.1233849
000080 fa 0b e8 f9 fe 04 ca fd f1 e5 09 de ec 08 ff 08
       -0.07403094 0.1357234 -0.29612377 -0.08636943 -0.02467698 0.04935396 -0.6662785 -0.03701547 -0.18507735 -0.33313924 0.11104641 -0.41950867 -0.2467698 0.09870792 -0.01233849 0.09870792
000090 ff 04 0e fd fe f8 f3 08 01 fd fc e4 d7 e5 11 f0
       -0.01233849 0.04935396 0.17273887 -0.03701547 -0.02467698 -0.09870792 -0.16040038 0.09870792 0.01233849 -0.03701547 -0.04935396 -0.34547773 -0.5058781 -0.33313924 0.20975433 -0.19741584
0000a0 fc ff 1a 0a d4 ff 0b 04 fc 01 f0 fc 04 0f f1 db
       -0.04935396 -0.01233849 0.32080075 0.1233849 -0.5428936 -0.01233849 0.1357234 0.04935396 -0.04935396 0.01233849 -0.19741584 -0.04935396 0.04935396 0.18507735 -0.18507735 -0.45652413
0000b0 0e f9 ea 07 04 09 fc 02 f9 fa 22 dd 00 f9 e6 ea
       0.17273887 -0.08636943 -0.2714468 0.08636943 0.04935396 0.11104641 -0.04935396 0.02467698 -0.08636943 -0.07403094 0.41950867 -0.43184716 0.0 -0.08636943 -0.32080075 -0.2714468
0000c0 f5 0d f1 ff f8 03 fe fb ed 04 df f3 f0 00 e0 f5
       -0.1357234 0.16040038 -0.18507735 -0.01233849 -0.09870792 0.03701547 -0.02467698 -0.06169245 -0.23443131 0.04935396 -0.40717018 -0.16040038 -0.19741584 0.0 -0.3948317 -0.1357234
0000d0 dd c4 1a fe c9 f4 05 00 05 fd 09 06 ff d1 03 e5
       -0.43184716 -0.7403094 0.32080075 -0.02467698 -0.67861694 -0.14806189 0.06169245 0.0 0.06169245 -0.03701547 0.11104641 0.07403094 -0.01233849 -0.579909 0.03701547 -0.33313924
0000e0 fc 11 03 25 ca ef 09 19 eb 0c d5 fc b6 fc f1 d1
       -0.04935396 0.20975433 0.03701547 0.45652413 -0.6662785 -0.20975433 0.11104641 0.30846226 -0.2591083 0.14806189 -0.53055507 -0.04935396 -0.91304827 -0.04935396 -0.18507735 -0.579909
0000f0 fe 08 fd fe 0b 02 fd 0b 04 08 06 06 fd 03 11 d6
       -0.02467698 0.09870792 -0.03701547 -0.02467698 0.1357234 0.02467698 -0.03701547 0.1357234 0.04935396 0.09870792 0.07403094 0.07403094 -0.03701547 0.03701547 0.20975433 -0.5182166

sequential_1/dense_6/MatMul i1 [64, 128] scale=0.009864839 zero_point=0
000000 bb da 19 06 06 0a 0a e5 03 0b fa c1 f4 06 05 fd
       -0.6806739 -0.37486386 0.24662097 0.059189033 0.059189033 0.098648384 0.098648384 -0.26635066 0.029594516 0.10851323 -0.059189033 -0.6214848 -0.118378066 0.059189033 0.049324192 -0.029594516
000010 fe 04 a5 b8 ed 04 d5 09 fc e8 00 f3 d5 fb f5 00
       -0.019729678 0.039459355 -0.8977003 -0.7102684 -0.18743193 0.039459355 -0.42418808 0.08878355 -0.039459355 -0.23675613 0.0 -0.12824291 -0.42418808 -0.049324192 -0.10851323 0.0
000020 f9 d2 f6 ca c7 e9 05 06 ff 0e 15 16 04 e3 dc 0c
       -0.06905387 -0.4537826 -0.098648384 -0.5327013 -0.5622958 -0.2268913 0.049324192 0.059189033 -0.009864839 0.13810775 0.20716162 0.21702646 0.039459355 -0.28608033 -0.3551342 0.118378066
000030 06 15 f0 ba 18 c2 be 08 0c d4 04 0c f8 e0 0e a0
       0.059189033 0.20716162 -0.15783742 -0.6905387 0.23675613 -0.61162 -0.65107936 0.07891871 0.118378066 -0.4340529 0.039459355 0.118378066 -0.07891871 -0.31567484 0.13810775 -0.9470245
000040 e9 e3 19 e3 e1 1d 00 0b 1e f9 e7 c2 fe eb 0f 13
       -0.2268913 -0.28608033 0.24662097 -0.28608033 -0.30581 0.28608033 0.0 0.10851323 0.29594517 -0.06905387 -0.24662097 -0.61162 -0.019729678 -0.20716162 0.14797258 0.18743193
000050 0e f6 f1 03 17 00 0f bd 02 14 04 f1 13 de 1e 01
       0.13810775 -0.098648384 -0.14797258 0.029594516 0.2268913 0.0 0.14797258 -0.6609442 0.019729678 0.19729677 0.039459355 -0.14797258 0.18743193 -0.33540452 0.29594517 0.009864839
000060 f3 ff fa fa d3 03 fc 08 05 fa ef f8 d9 f2 fb ef
       -0.12824291 -0.009864839 -0.059189033 -0.059189033 -0.44391775 0.029594516 -0.039459355 0.07891871 0.049324192 -0.059189033 -0.16770226 -0.07891871 -0.3847287 -0.13810775 -0.049324192 -0.16770226
000070 ff 16 fa 16 14 f7 f8 02 0a fc fc e8 10 06 0d fd
       -0.009864839 0.21702646 -0.059189033 0.21702646 0.19729677 -0.08878355 -0.07891871 0.019729678 0.098648384 -0.039459355 -0.039459355 -0.23675613 0.15783742 0.059189033 0.12824291 -0.029594516
000080 ff e0 f2 ef f9 12 12 1b ff ff 20 1e 02 f9 22 ed
       -0.009864839 -0.31567484 -0.13810775 -0.16770226 -0.06905387 0.1775671 0.1775671 0.26635066 -0.009864839 -0.009864839 0.31567484 0.29594517 0.019729678 -0.06905387 0.33540452 -0.18743193
000090 f4 0f 05 05 09 0c 04 e7 f7 15 f9 18 e6 01 f8 0a
       -0.118378066 0.14797258 0.049324192 0.049324192 0.08878355 0.118378066 0.039459355 -0.24662097 -0.08878355 0.20716162 -0.06905387 0.23675613 -0.25648582 0.009864839 -0.07891871 0.098648384
0000a0 d3 f7 fc f5 09 fd 06 fd 10 0a 00 ef 12 f1 ea e3
       -0.44391775 -0.08878355 -0.039459355 -0.10851323 0.08878355 -0.029594516 0.059189033 -0.029594516 0.15783742 0.098648384 0.0 -0.16770226 0.1775671 -0.14797258 -0.21702646 -0.28608033
0000b0 06 fb ea d9 0e f9 14 fa 03 ef f2 13 04 eb d9 ff
       0.059189033 -0.049324192 -0.21702646 -0.3847287 0.13810775 -0.06905387 0.19729677 -0.059189033 0.029594516 -0.16770226 -0.13810775 0.18743193 0.039459355 -0.20716162 -0.3847287 -0.009864839
0000c0 f8 cf ef f2 f5 03 fa ed f4 f7 20 fd 0d 07 e9 da
       -0.07891871 -0.4833771 -0.16770226 -0.13810775 -0.10851323 0.029594516 -0.059189033 -0.18743193 -0.118378066 -0.08878355 0.31567484 -0.029594516 0.12824291 0.06905387 -0.2268913 -0.37486386
0000d0 09 07 dc 05 f6 05 0d d0 f0 e6 11 0b e9 d3 02 db
       0.08878355 0.06905387 -0.3551342 0.049324192 -0.098648384 0.049324192 0.12824291 -0.47351226 -0.15783742 -0.25648582 0.16770226 0.10851323 -0.2268913 -0.44391775 0.019729678 -0.36499903
0000e0 04 dd f0 1e 12 02 25 08 02 17 f4 e1 1d 1c f6 b0
       0.039459355 -0.34526935 -0.15783742 0.29594517 0.1775671 0.019729678 0.36499903 0.07891871 0.019729678 0.2268913 -0.118378066 -0.30581 0.28608033 0.2762155 -0.098648384 -0.7891871
0000f0 e7 ff 06 1a 0b f1 08 f3 f1 06 fc ec 01 ee b9 0f
       -0.24662097 -0.009864839 0.059189033 0.25648582 0.10851323 -0.14797258 0.07891871 -0.12824291 -0.14797258 0.059189033 -0.039459355 -0.19729677 0.009864839 -0.1775671 -0.7004036 0.14797258

sequential_1/dense_7/MatMul i1 [28, 64] scale=0.03425075 zero_point=0
000000 04 f3 f5 fb 06 fb f4 09 f8 f1 fe f1 f8 08 05 04
       0.137003 -0.44525975 -0.37675828 -0.17125376 0.2055045 -0.17125376 -0.411009 0.30825675 -0.274006 -0.5137613 -0.0685015 -0.5137613 -0.274006 0.274006 0.17125376 0.137003
000010 ed 02 fe 02 04 05 00 e3 f6 05 05 fe f4 07 07 f3
       -0.6507643 0.0685015 -0.0685015 0.0685015 0.137003 0.17125376 0.0 -0.99327177 -0.3425075 0.17125376 0.17125376 -0.0685015 -0.411009 0.23975526 0.23975526 -0.44525975
000020 f9 02 03 06 ec fa 07 05 fb f4 05 f7 01 f8 03 f9
       -0.23975526 0.0685015 0.10275225 0.2055045 -0.685015 -0.2055045 0.23975526 0.17125376 -0.17125376 -0.411009 0.17125376 -0.30825675 0.03425075 -0.274006 0.10275225 -0.23975526
000030 04 06 ef 03 05 fb f1 01 fc e5 04 f3 ea 02 f7 e9
       0.137003 0.2055045 -0.58226275 0.10275225 0.17125376 -0.17125376 -0.5137613 0.03425075 -0.137003 -0.9247703 0.137003 -0.44525975 -0.75351655 0.0685015 -0.30825675 -0.7877673
000040 f9 07 f2 ff 04 e4 09 f6 f2 02 f8 f2 fa 07 f8 03
       -0.23975526 0.23975526 -0.47951052 -0.03425075 0.137003 -0.95902103 0.30825675 -0.3425075 -0.47951052 0.0685015 -0.274006 -0.47951052 -0.2055045 0.23975526 -0.274006 0.10275225
000050 e6 08 f5 02 fa f9 fb f5 f6 02 04 ee f7 06 06 fb
       -0.8905195 0.274006 -0.37675828 0.0685015 -0.2055045 -0.23975526 -0.17125376 -0.37675828 -0.3425075 0.0685015 0.137003 -0.6165135 -0.30825675 0.2055045 0.2055045 -0.17125376
000060 f3 fc f4 06 e9 f5 e7 05 f0 f4 03 f2 e3 f4 f3 08
       -0.44525975 -0.137003 -0.411009 0.2055045 -0.7877673 -0.37675828 -0.85626876 0.17125376 -0.548012 -0.411009 0.10275225 -0.47951052 -0.99327177 -0.411009 -0.44525975 0.274006
000070 fb 07 f5 08 07 f6 d6 e8 f1 04 04 f8 04 02 e8 ca
       -0.17125376 0.23975526 -0.37675828 0.274006 0.23975526 -0.3425075 -1.4385315 -0.822018 -0.5137613 0.137003 0.137003 -0.274006 0.137003 0.0685015 -0.822018 -1.8495406
000080 05 07 eb 04 f5 fa 0a f9 e8 ed f4 f5 01 02 01 05
       0.17125376 0.23975526 -0.71926576 0.137003 -0.37675828 -0.2055045 0.3425075 -0.23975526 -0.822018 -0.6507643 -0.411009 -0.37675828 0.03425075 0.0685015 0.03425075 0.17125376
000090 f0 07 fd 03 e7 06 f7 ec 03 02 f2 f2 ff 03 07 e0
       -0.548012 0.23975526 -0.10275225 0.10275225 -0.85626876 0.2055045 -0.30825675 -0.685015 0.10275225 0.0685015 -0.47951052 -0.47951052 -0.03425075 0.10275225 0.23975526 -1.096024
0000a0 f5 eb 08 04 f0 f3 ec 06 01 f4 f0 f2 ff e1 f8 09
       -0.37675828 -0.71926576 0.274006 0.137003 -0.548012 -0.44525975 -0.685015 0.2055045 0.03425075 -0.411009 -0.548012 -0.47951052 -0.03425075 -1.0617733 -0.274006 0.30825675
0000b0 02 06 f8 08 02 04 ee ea f7 f1 05 07 04 04 e2 f2
       0.0685015 0.2055045 -0.274006 0.274006 0.0685015 0.137003 -0.6165135 -0.75351655 -0.30825675 -0.5137613 0.17125376 0.23975526 0.137003 0.137003 -1.0275226 -0.47951052
0000c0 e7 f3 e8 e3 f9 06 00 08 dc f1 f6 05 04 00 06 f5
       -0.85626876 -0.44525975 -0.822018 -0.99327177 -0.23975526 0.2055045 0.0 0.274006 -1.233027 -0.5137613 -0.3425075 0.17125376 0.137003 0.0 0.2055045 -0.37675828
0000d0 dd fa 06 05 d4 04 fa f5 fe 04 f4 00 04 ee 07 07
       -1.1987762 -0.2055045 0.2055045 0.17125376 -1.5070331 0.137003 -0.2055045 -0.37675828 -0.0685015 0.137003 -0.411009 0.0 0.137003 -0.6165135 0.23975526 0.23975526
0000e0 03 ee eb f0 fa 05 06 fa 04 03 e7 e4 04 f1 fa f1
       0.10275225 -0.6165135 -0.71926576 -0.548012 -0.2055045 0.17125376 0.2055045 -0.2055045 0.137003 0.10275225 -0.85626876 -0.95902103 0.137003 -0.5137613 -0.2055045 -0.5137613
0000f0 05 05 fc 06 f9 04 f7 05 e6 ed f3 00 fb f1 ef d7
       0.17125376 0.17125376 -0.137003 0.2055045 -0.23975526 0.137003 -0.30825675 0.17125376 -0.8905195 -0.6507643 -0.44525975 0.0 -0.17125376 -0.5137613 -0.58226275 -1.4042808
